Neural_Network_Construction/models.pth (torch, 92143 bytes, 8 tensors)

conv1.weight f4 [10, 3, 5, 5]
000000 f0 99 4e bd a6 57 3f bd f8 90 bf bc d8 b1 4e ba
       -0.050439775 -0.046714447 -0.023384556 -0.0007884777
000010 6e db 24 bd a9 42 df bd 23 0f 8f bd 7c e9 21 bc
       -0.040248327 -0.10901386 -0.06985309 -0.009882327
000020 5a 07 17 bd 5e a4 af 3d 33 35 c0 3d a1 a0 96 3d
       -0.036872245 0.085762724 0.09385147 0.07354856
000030 69 47 51 3d 23 7e bb bd e3 69 df 3d d7 66 d0 bd
       0.051093493 -0.09154918 0.10908868 -0.10175865
000040 10 89 1b bd 70 75 a6 bd aa 0e 2a 3d ca cb c4 bd
       -0.03797251 -0.08127868 0.04151789 -0.09609182
000050 d2 13 69 bd f6 32 96 bd 89 56 91 bd 1b bc 5c bd
       -0.056903668 -0.07333939 -0.070965834 -0.05389033
000060 81 79 e8 3d 27 b9 1a bc 59 1e 10 3d c4 c4 ea bd
       0.113513 -0.009443558 0.03518519 -0.11463311
000070 3e 3f d2 3d ee 00 ce bc fe 0c d9 bd 25 f3 a2 3d
       0.10265969 -0.025146928 -0.10598181 0.079565324
000080 79 e0 ff bc f0 bb d6 3d 80 a4 a0 bd 28 93 db bd
       -0.031234967 0.10485065 -0.07843876 -0.10721427
000090 62 ae b1 bd ed d6 4c 3d 43 4c 54 bc f9 17 db bd
       -0.08675839 0.050009657 -0.012957635 -0.10697932
0000a0 03 58 af 3c d9 82 f1 bb e0 d5 2a 3d e8 9a 70 bd
       0.021404272 -0.0073703346 0.041707873 -0.05874148
0000b0 8f d6 a8 bd a2 35 a1 3d 28 98 63 bd 49 5b a6 3d
       -0.08244049 0.07871558 -0.05556503 0.0812288
0000c0 23 c0 bf 3d 88 63 a5 bd 31 1c 5a bd 37 87 63 3c
       0.09362819 -0.08075625 -0.05324954 0.013887218
0000d0 02 fd de bd 0c 38 11 3d 35 17 45 bd 12 bf 51 bd
       -0.10888101 0.03545384 -0.048117835 -0.05120761
0000e0 a1 d7 b6 bd 7e 35 5d 3d 6e b9 96 bd 56 0a bd bd
       -0.08927847 0.054006092 -0.07359587 -0.09230487
0000f0 52 d7 f8 bc 22 ad 83 bd 51 ee e5 bd 88 91 3e 3d
       -0.03037611 -0.06429507 -0.11227096 0.04652551
000100 6c fb 33 bd cf a1 a5 3d 1b 70 a6 3d 07 d8 96 bd
       -0.043940946 0.08087503 0.08126851 -0.07365423
000110 42 e1 89 bd 4b ec 27 bd 48 8a 8a 3d 78 83 82 bb
       -0.06732418 -0.04099683 0.06764656 -0.0039829575
000120 84 fb 28 bd 6f 7e 92 3d 85 42 e0 3d fb 82 b0 3d
       -0.04125549 0.071530215 0.109501876 0.086187325
000130 59 7d b2 bd e2 76 b8 bc 85 5e a7 bc cf d8 cd 3d
       -0.087153144 -0.022517625 -0.020430813 0.100511186
000140 32 e3 70 bd 1e 37 85 bd aa a9 5b 3b 7f ba cc bc
       -0.05881042 -0.065046534 0.0033517876 -0.024991272
000150 01 69 3b 3d 98 7b 73 3c 35 ed 8a bd 91 04 af 3d
       0.045754436 0.01486101 -0.06783525 0.08545793
000160 9c 03 97 3d 60 67 e0 3c 66 83 d4 bd 7d 1a 63 3d
       0.07373735 0.027393043 -0.10376625 0.055445183
000170 e6 60 a0 3d 85 5f 0b 3d 1b 27 2e bd 52 77 0b 3c
       0.07830982 0.03402664 -0.042517763 0.008512335
000180 c7 dc 30 bd e8 ae e1 3d 50 09 e8 3d 88 ec 3c bc
       -0.0431793 0.11019689 0.11329901 -0.011531003
000190 ac b1 9d bd 50 19 8d 3d 10 af 76 3d 45 8c 80 3d
       -0.07699904 0.068895936 0.060225546 0.06276754
0001a0 bd 34 ae bd f8 94 23 3d 41 ea 45 bd dd 0b cd bd
       -0.08506153 0.03993699 -0.048319105 -0.10012028
0001b0 39 b8 a1 bd 02 34 50 3d a0 f0 33 3d a5 97 cd bd
       -0.07896466 0.05083085 0.04393065 -0.100386895
0001c0 d4 d9 88 3d a6 b7 b8 3d 0c 80 b7 3d ed da 86 3d
       0.066821724 0.09019403 0.0895997 0.065847255
0001d0 24 da 8b bc 72 6c a1 3d 9c b1 bc 3d 82 88 7e 3d
       -0.017071791 0.078820124 0.09213564 0.062141903
0001e0 1f bf a8 bd ce be 20 bd 87 25 be 3d be af b7 3d
       -0.082395785 -0.039244466 0.092845015 0.08969067
0001f0 34 83 9a 3d c8 71 41 bd 2b 86 b0 bc 3d ec ac bd
       0.07544556 -0.04722765 -0.021548351 -0.084434964
000200 6b f3 82 bd e6 f4 b9 3d 52 c5 bf bd 52 f8 de bc
       -0.063940845 0.09079914 -0.09363808 -0.027218018
000210 94 d7 d6 3c b8 cc 89 bd 87 eb ee 3c 83 44 8f bc
       0.026225843 -0.067285 0.029165043 -0.017488724
000220 b0 83 42 3d fb fd b1 bd 8e b2 93 3c 6e ce d2 bd
       0.04748887 -0.08691021 0.018029477 -0.102932796
000230 4d e5 94 3d 61 ad e8 3d 25 6c 21 bd 56 5d 9d 3c
       0.07270298 0.113611944 -0.039409775 0.019209545
000240 04 f4 69 bd f3 10 95 bd 0e 96 69 bd 13 31 5a bd
       -0.057117477 -0.072786234 -0.05702787 -0.053269457
000250 0d 4e c4 3c c2 23 35 bc e0 b1 02 3c 62 78 b5 bd
       0.023962999 -0.011055889 0.007976979 -0.08860852
000260 d5 cd 94 bd 26 fa cc bd c4 3e aa bd 38 8d c5 3d
       -0.07265822 -0.100086495 -0.08312753 0.09646076
000270 d3 d2 2e 3d e4 ee e1 bd 40 70 9f bc 9b f4 14 3c
       0.042681526 -0.11031893 -0.019462705 0.009091522
000280 42 8e 7b 3d 0f c9 da 3d 71 91 e2 3c fe 25 a6 3d
       0.061414964 0.1068288 0.027657242 0.08112715
000290 f7 19 29 bd 87 39 85 bb ab 4c 8f bd 98 fd d7 3c
       -0.041284528 -0.0040656957 -0.06997045 0.02636604
0002a0 53 d6 d9 3d f1 19 94 3d 2a b8 ea 3d ec 2f 56 bd
       0.10636582 0.072315104 0.11460908 -0.052291796
0002b0 c7 c3 70 bc f4 4a c1 3c 2f be bd 3d af a6 d9 bd
       -0.014695114 0.02359531 0.0926479 -0.106274955
0002c0 7e d0 68 bd 70 29 88 3c 7d f9 88 bd 4f 11 30 3d
       -0.05683946 0.016621321 -0.06688211 0.042985257
0002d0 b1 03 05 bc 18 05 f7 bc ac c9 7c 3d 27 98 a8 3d
       -0.008118556 -0.030153796 0.061715767 0.08232146
0002e0 fd a4 e5 3d 53 03 55 3d d3 4e 61 bb c0 d9 c0 3d
       0.1121311 0.052005123 -0.0034379258 0.094165325
0002f0 7b ba bb 3d 9d e7 6d bd f3 36 56 3d 8d 24 59 3c
       0.09166428 -0.05808221 0.052298497 0.013253343
000300 a8 70 4d bd ca 3b e3 bc 8b 29 e1 bc a2 15 a6 bd
       -0.050156265 -0.02773847 -0.02748563 -0.08109595
000310 50 6f 11 bd 4f 14 1e 3d 7f 1d ad 3d 2d 4e 0c 3c
       -0.035506546 0.038593587 0.084528916 0.00856356
000320 4c 34 e5 bd c1 1c 7a 3d 13 7d 0f bd 51 fc d2 3d
       -0.111916155 0.061062578 -0.03503139 0.10302032
000330 9f b9 e4 bd 41 e4 de bc e7 08 b7 3d 13 f6 4b 3d
       -0.11168217 -0.02720845 0.08937245 0.04979522
000340 ad 93 6c bd 9a 09 cd bd d9 4b c0 ba d7 d4 35 3d
       -0.057758022 -0.10011597 -0.0014671042 0.044392433
000350 9f af c4 bd d8 3e c6 bd 35 4e d3 ba 42 f1 c3 bc
       -0.096038096 -0.09679955 -0.001612133 -0.023918752
000360 10 91 97 3d 2e 85 e5 bd 93 f5 97 bc bc 9a b7 bd
       0.07400715 -0.11207043 -0.018549716 -0.0896506
000370 70 9f 8b bc 2b 7b 72 bd 31 09 14 3d 28 35 c6 bd
       -0.0170438 -0.059199493 0.036141578 -0.096781075
000380 3a 5a ba bd f6 d6 87 bd 07 16 d1 bd 07 38 93 3d
       -0.090992406 -0.066327974 -0.102092795 0.07188421
000390 b3 71 90 bc 14 a8 85 bd 05 00 a4 3d bf 5a de bc
       -0.017632341 -0.06526199 0.08007816 -0.02714288
0003a0 96 5b 70 3d 98 3a 17 bd d8 29 c8 bd b1 ab c9 3c
       0.058681093 -0.036921114 -0.09773606 0.024618002
0003b0 d1 83 91 3d 64 9f e8 bd ee 86 34 3c 5c 52 b4 3c
       0.0710522 -0.11358526 0.011018498 0.022011928
0003c0 3c 04 4e 3c 12 ea 6d bb 93 6e 16 bd 6a 54 b9 bd
       0.012574252 -0.0036302847 -0.036726546 -0.09049304
0003d0 cc d1 92 3c d2 59 a0 bd 56 da c4 bd 43 c4 1a bd
       0.017922305 -0.07829632 -0.09611957 -0.037784826
0003e0 48 67 a3 bd 27 f5 0d 3d a2 d9 a6 3d 78 d5 b5 3d
       -0.07978684 0.034657624 0.08146979 0.088786066
0003f0 5d 97 94 bd 5e 78 7d 3d 0e d3 a5 3d cd b4 fe 39
       -0.07255433 0.06188237 0.08096896 0.00048581362

conv1.bias f4 [10]
000000 12 cd 38 3d 47 cf 50 3c 2a 0d a7 bd 08 7d 6b bd
       0.045117445 0.012744731 -0.08156808 -0.057492286
000010 4c b6 8d 3e 12 94 2e 3e 94 94 b9 3c ef b7 81 3d
       0.27678144 0.17048672 0.022653855 0.06333911
000020 2a 81 55 3c 1a 03 2f bd
       0.013031283 -0.042727567

conv2.weight f4 [20, 10, 5, 5]
000000 f4 12 6c 3d c7 7a 66 bd 6f f2 f6 3c ff 05 69 bd
       0.057635263 -0.056269433 0.030144898 -0.056890484
000010 bc 96 f7 bc fc 53 53 bc df c8 8e 3b 24 b2 28 bc
       -0.030223243 -0.012898441 0.004357442 -0.010296378
000020 e6 0b ed bc 3d 59 e7 bc b7 a1 1d bd d0 da 34 bd
       -0.028936338 -0.028240794 -0.0384843 -0.04415399
000030 8f 6d 21 bd b9 60 78 3d df 3a f4 bc 85 72 57 bd
       -0.039411124 0.060639117 -0.029813228 -0.05259945
000040 5f 06 32 3d 6b f2 c8 3c 22 2a 32 3d cc da 80 bd
       0.043463107 0.024529656 0.043497212 -0.06291732
000050 f0 9f 76 bd f6 e6 37 bd 59 80 08 bd c7 f7 1a b9
       -0.060211122 -0.044897996 -0.033325527 -0.00014778889
000060 c8 01 e0 3c b3 23 0c 3d e8 43 69 bd 07 3c bb 3c
       0.0273446 0.034213733 -0.056949526 0.022855772
000070 8d 00 1f bd d8 3c 49 3c 3c 40 8c 3c fd 1a f1 3b
       -0.038818885 0.012282573 0.017120473 0.0073579536
000080 b6 42 a1 3c c8 c5 bb bb 78 be 20 3d 96 5c 29 3c
       0.01968513 -0.0057303645 0.039244145 0.010337016
000090 93 2d 57 3d 23 42 34 3c 5f fb 12 bd 43 ee 1c 3d
       0.052533697 0.011002096 -0.035884257 0.03831316
0000a0 95 b4 c3 39 8e 37 6e 3d 97 79 1f bc 51 49 76 3d
       0.00037327842 0.05815845 -0.009733579 0.060128514
0000b0 f4 02 20 bd fb 31 eb 3c 97 23 4d bd 3e a9 26 3d
       -0.039065316 0.028710356 -0.05008277 0.040688746
0000c0 47 28 16 3c c3 7c 0a 3d 7e 32 5f bd 29 e5 80 bd
       0.009164876 0.03381039 -0.054491512 -0.06293709
0000d0 53 57 f9 3c fd 5c d5 bc d8 05 cd 3c 19 c4 19 bd
       0.030437147 -0.026045317 0.0250272 -0.03754053
0000e0 eb 52 a0 bc 79 d9 8c 39 f8 f0 1b 3d 0a 47 12 3d
       -0.019570788 0.0002686491 0.038071603 0.03571228
0000f0 07 11 b9 bb a3 a8 92 bc 47 a5 93 ba 18 60 05 3d
       -0.005647782 -0.017902678 -0.0011264466 0.032562345
000100 4a a1 5b bd 59 71 9e bc cd d9 79 bd 9f f2 14 3c
       -0.053620614 -0.019341158 -0.060998727 0.0090910485
000110 96 a2 f6 bb 86 a6 12 3d da de 4e 3d cc 9a 5d bd
       -0.007526706 0.03580334 0.050505497 -0.054102704
000120 43 6b e5 bc 58 b6 26 bc cb b3 27 ba 30 ac 73 bc
       -0.028005248 -0.01017531 -0.00063973357 -0.014872596
000130 e9 bf 24 bd 9d 03 cc bc 9d 15 0a bb bf 22 4e 3d
       -0.040222082 -0.024904067 -0.0021070011 0.050326105
000140 a9 88 88 bc cc 1a 29 3d 16 31 53 bd c3 53 19 3b
       -0.016666727 0.04128532 -0.051560484 0.0023395873
000150 b2 83 4c bd 51 94 75 bd 45 79 ba 3b c5 1c f2 bc
       -0.049930282 -0.0599559 0.005690726 -0.029554734
000160 b1 e9 3b 3d 17 a1 49 3d c0 2e 82 bd 8a cf a6 bb
       0.045877162 0.049225893 -0.06356573 -0.0050906586
000170 86 13 3c bc 18 86 16 bd 60 c4 37 bd 50 a8 e1 bc
       -0.011479264 -0.036748976 -0.044865012 -0.027546078
000180 80 97 dd 3c 9a 91 68 3c 01 6e 18 3d ad c2 96 bb
       0.02704978 0.01419487 0.037214283 -0.004600844
000190 9f d2 b2 3c 76 ec c5 3a 95 15 c5 bc bb 21 5c bc
       0.021828948 0.0015100378 -0.024058143 -0.013435776
0001a0 66 27 89 bd f1 27 55 bc 00 06 03 bd 67 f8 02 bd
       -0.06696968 -0.013010011 -0.031988144 -0.031975176
0001b0 6e ae 12 bd de e4 c3 bc 5e 41 70 bd 86 77 05 bc
       -0.03581088 -0.023912843 -0.05865609 -0.008146172
0001c0 bb 36 68 bc c6 5f e3 bc 42 da 34 3d 7e b2 f5 3c
       -0.014173205 -0.02775563 0.04415346 0.029992338
0001d0 a0 e8 b3 3b 80 9e 10 bd ea 40 5e bb 3f 8d 5e bd
       0.0054903775 -0.035307407 -0.0033913204 -0.05433392
0001e0 fd 9b fe 3c e2 ef 3d 3d d7 2d b3 bc 67 3c 17 3d
       0.03108024 0.04637135 -0.021872444 0.03692284
0001f0 84 5b 45 3d 55 ae e0 bb 7c 8e d7 bc 8c 03 0e 3a
       0.04818298 -0.0068567195 -0.026313059 0.00054173986
000200 7a 42 00 3c a7 86 7a bd 9e 1d e8 bb c9 09 d4 bc
       0.007828349 -0.06116357 -0.007083609 -0.025883572
000210 e4 99 21 3d 25 80 91 bb 46 65 1f 3d 20 11 59 3d
       0.039453402 -0.004440325 0.03891494 0.052994847
000220 4a 73 bb bc 1b f5 30 3c 43 df 03 bc fd 93 f7 bc
       -0.022882123 0.010800625 -0.008048835 -0.030221933
000230 62 f3 1c bd 29 39 d7 ba c2 46 85 3c d2 7b 61 bc
       -0.038318045 -0.0016420233 0.016269092 -0.013762431
000240 3a 0f 04 3c 07 f8 13 3d d2 9a bd 3c bf b5 bc 3c
       0.008060271 0.03612521 0.023145113 0.023035882
000250 4a 39 76 3c 91 f3 51 bd 12 1b 24 bd ee f8 46 bd
       0.015028307 -0.051257674 -0.04006488 -0.04857724
000260 5e a7 23 3d 14 d1 69 bd 6d cd 46 bd cb 19 22 3d
       0.039954536 -0.057084158 -0.048535753 0.03957538
000270 b7 04 11 3d a0 0d 7c bd b9 40 0f 3d 06 8b 81 bc
       0.035404887 -0.06153643 0.034973834 -0.015813362
000280 fe 4c 3a 3c 6f 21 2b bd 33 e5 3e bc 5b 96 47 3c
       0.011370895 -0.04177993 -0.011651325 0.012181844
000290 2b 44 3e 3d a5 61 13 3d 89 ec 15 bd 63 07 33 bd
       0.04645173 0.035981793 -0.03660253 -0.043708216
0002a0 7f 95 c1 bb 26 37 93 3c 28 38 03 3d 64 08 86 bd
       -0.005907714 0.017970633 0.032035977 -0.06544569
0002b0 3f cc f8 bb 1d 0a b8 37 21 3a 01 bd 22 97 31 3d
       -0.0075927074 2.1939219e-05 -0.031549577 0.043357022
0002c0 4c 7a bb bc 1f 1a 87 bd fe 39 30 bd b1 da 4c bb
       -0.022885464 -0.06596779 -0.043024056 -0.003125828
0002d0 20 cb 5d bd 5f 44 fd 3b 2c d1 62 3d 7c ef 4f bb
       -0.054148793 0.0077290977 0.055375263 -0.0031728437
0002e0 7f 95 ad bc 19 69 55 3d ca 4d 21 3d 97 1a 10 3d
       -0.02118945 0.052102182 0.039380826 0.035181608
0002f0 7d d4 bd ba b8 06 49 bb 58 a3 68 bd 7c 6d ab ba
       -0.0014482882 -0.003067417 -0.0567964 -0.0013078894
000300 fe 25 5e 3d 3e dd 52 bb a4 19 80 bd 4d c6 d8 3c
       0.05423545 -0.0032175328 -0.062548906 0.026461745
000310 42 be 47 3d bc 1a 3a 3d 90 80 7d bb 6c 74 bb 3b
       0.04876543 0.045435652 -0.0038681366 0.0057206657
000320 3a de ad 3b 5f 34 fa bc b8 6d 5d bc 8f be 42 3d
       0.0053060325 -0.03054255 -0.0135149285 0.047545012
000330 a5 d8 22 3b a4 f4 5d 3d e5 e3 40 bd 1c 02 65 bc
       0.0024848368 0.054188386 -0.047092337 -0.013977554
000340 98 b4 6b bb ad 75 2b bd 3d d6 2f 3d ee 45 1d 3d
       -0.0035965797 -0.04186027 0.042928923 0.03839677
000350 db a7 21 bd cd 9a 4f 3d 39 3c 5e 3d cc 96 31 bd
       -0.03946672 0.05068474 0.05425665 -0.0433567
000360 99 8f 06 bc 9a 83 6a 3d de c4 3d bd 3a 02 72 bc
       -0.008212947 0.05725441 -0.046330325 -0.014771039
000370 84 1d 4c bd 4c d5 20 3d 03 11 88 3b cb 78 aa 3c
       -0.049832836 0.039265916 0.0041524186 0.020809552
000380 b9 57 25 3d 2e 5a 29 bc ae 31 82 bd 4f 71 32 3b
       0.040366862 -0.010336442 -0.06357132 0.0027228182
000390 fa 7d ac bb 45 fa b8 3c e9 b5 ef 3c c1 fe 01 bd
       -0.005264041 0.022580275 0.029261546 -0.031737093
0003a0 8f f9 ce bc 1d 8f 21 3d 4c db 8f 3c 37 1b 68 3c
       -0.025265483 0.039443124 0.017560624 0.014166645
0003b0 d7 e5 e3 3c 39 2d ed 3c 47 28 3d bd 07 c9 95 3b
       0.027819557 0.028952228 -0.04618099 0.0045710835
0003c0 9f 26 bd 3b fd 66 7b bd 19 f3 55 3c 86 3a ac ba
       0.0057724263 -0.061377514 0.013058447 -0.001314
0003d0 3d e0 46 3d 7a a3 78 bd 9a 32 72 3d 7b 47 00 bd
       0.048553694 -0.06070278 0.05913029 -0.03131817
0003e0 59 8b 16 3d 58 40 3d 3d cd 4f 00 bc a5 7c 04 bd
       0.036753986 0.04620394 -0.007831526 -0.032345433
0003f0 43 b7 2b bc a6 6f 21 bd 41 b2 00 3c 12 d6 d9 3c
       -0.010480705 -0.039413117 0.007854999 0.026591334

conv2.bias f4 [20]
000000 f7 5c e9 3b 31 3a 87 3c fe e0 55 3d 4e 04 b5 3d
       0.007121678 0.01650724 0.052216522 0.08838712
000010 07 7b 34 3d 5d 2a 3d bc 85 b6 25 bc 0c 08 b8 bb
       0.04406264 -0.011545745 -0.010114317 -0.0056161936
000020 e9 15 8b 3d 8e 35 81 bd 89 07 ae 3c b9 e3 5a 3d
       0.067912884 -0.06309043 0.021243827 0.05343983
000030 fc 5e d8 bb 8c e9 e6 3d 7c ec ef 3d 48 c2 70 3d
       -0.00660312 0.11275014 0.11715028 0.05877903
000040 2c 63 25 3d a3 54 bc 3d b1 4f c3 3d e5 20 72 bc
       0.04037778 0.09195831 0.09536684 -0.0147783505

fc1.weight f4 [50, 320]
000000 7b 21 3e 3d 5b b8 34 bd 9f 91 9f bc 01 5c 4c bd
       0.04641865 -0.044121128 -0.019478617 -0.04989243
000010 b2 31 13 3d aa 64 22 3d 59 42 65 3d a6 18 58 bd
       0.035936065 0.039646782 0.055971477 -0.05275788
000020 a5 fc 91 3c c3 00 d9 bc a5 39 d2 bc b0 79 09 bd
       0.017820666 -0.026489621 -0.025662253 -0.033563316
000030 66 4b 59 bd 50 af 75 bc df da 04 3d 7d 21 1e 3b
       -0.05305042 -0.014995411 0.032435294 0.0024128847
000040 cf 20 9c bc b8 f2 66 ba 09 a5 b5 bc 2c d4 70 bc
       -0.019058613 -0.00088099716 -0.022173421 -0.014699023
000050 fc cf 5f 3d 2a 65 0b bd 1d 62 fd 3c 49 24 26 bd
       0.05464171 -0.034032024 0.030930573 -0.040561948
000060 f3 6e 08 3c 51 43 e5 3c 6c 86 d1 3b 69 d0 5c 3d
       0.008327234 0.0279862 0.006394198 0.053909693
000070 69 ce b2 3c c8 cb 87 ba db e6 1d bd 4c 0a df bc
       0.02182694 -0.0010360414 -0.03855024 -0.02722659
000080 fb 4d e5 3c 05 8c 16 3d d1 36 21 3d 6a 7a 5e bc
       0.027991286 0.036754627 0.039358918 -0.0135789905
000090 6d d4 1f bd 1f d4 4c 3d dc 9a 40 bd 73 72 ad 3c
       -0.039020944 0.050006982 -0.047022685 0.021172738
0000a0 15 b6 ed 3c 9a 32 b6 3c 1d 5a 40 3d 24 3b 4e 3b
       0.029017488 0.022240926 0.04696094 0.0031468356
0000b0 ff ac 37 bd 18 7a e0 bb 5f e0 92 3b 62 cf 2c bc
       -0.044842716 -0.006850492 0.0044823135 -0.010547491
0000c0 72 b5 f1 3c c5 f7 11 3d 05 74 83 bc c9 71 ba bb
       0.029505465 0.035636682 -0.016046533 -0.005689834
0000d0 70 41 10 bc 15 a1 60 bc ab c6 1f bd e8 d9 47 bc
       -0.008804664 -0.01371028 -0.039007824 -0.012197949
0000e0 3e 26 df 3a d1 67 13 bd 56 da 0d bd fe 8e 62 3d
       0.0017024947 -0.03598768 -0.03463205 0.05531215
0000f0 16 6d 3a 3d 42 d9 11 bd e7 f3 dc bc 29 7a ea 3c
       0.04551419 -0.035607584 -0.02697177 0.028622704
000100 62 8c 6a 3c a6 e4 17 bd 9d 71 dd bb 34 ed 29 bd
       0.014315696 -0.03708329 -0.0067579285 -0.04148598
000110 23 a6 06 bb 82 0b 1d bd 5a b4 09 bc 63 05 42 bb
       -0.0020545803 -0.038341053 -0.008404816 -0.0029605262
000120 9c f8 07 bd 2a 19 3e 3d f0 9f 2b bc 1c 71 eb 3c
       -0.033196077 0.046410717 -0.010475144 0.028740458
000130 c1 2a 07 3c a3 6f c8 bc e6 88 fa 3c 22 c4 a2 bb
       0.008249939 -0.024467295 0.030582856 -0.0049672285
000140 7a d2 d3 bc 08 91 e8 bb c7 40 34 bd dc dc 20 bc
       -0.025857199 -0.007097367 -0.04400709 -0.009818282
000150 2a cb 62 3c 6a 46 1c 3d df 2f d1 bc fc 3a 57 bd
       0.013842383 0.03815309 -0.025535522 -0.052546486
000160 a6 5d f0 bc 24 d5 dc bc e0 e1 b7 3a 74 24 ab bc
       -0.02934153 -0.026957102 0.0014029108 -0.020891406
000170 5c ed 48 3d 04 e0 91 bc dc e6 50 bc 2a dd 42 bd
       0.04905449 -0.017807014 -0.012750354 -0.0475742
000180 1c 82 32 3d 66 68 1f 3d 1c 67 4e bd 19 10 6b bb
       0.043581113 0.03891792 -0.0503913 -0.003586775
000190 e8 6e d3 3c b4 7d e6 3c d5 45 fa bc 6a bb d2 3a
       0.02580972 0.028136112 -0.030550877 0.0016077582
0001a0 e2 bb 0f 3c cb 23 2f bd 1c 07 56 bd 15 7f 96 3c
       0.008772822 -0.042758744 -0.052252874 0.018371144
0001b0 75 23 36 bd 24 9a 84 3c 8d 7b 54 bc b5 2c 0d 3b
       -0.04446741 0.016186781 -0.01296891 0.002154154
0001c0 60 5a dd 3b d6 4c af bb 38 35 74 bc e8 6a 05 bc
       0.0067551583 -0.0053497357 -0.014905266 -0.008143164
0001d0 ba 2c 59 bc b8 4a c2 3b ea 5e 54 3d e2 67 2a 3d
       -0.013255293 0.0059293173 0.05184833 0.041602977
0001e0 fc 74 1f bc 98 ef 19 3d 48 95 da 3c 68 1e fb 3c
       -0.009732481 0.03758201 0.026682511 0.030654147
0001f0 cc 1d 49 bc 31 d3 fa bc 76 7f 03 3d 30 05 9b 3c
       -0.012275171 -0.030618282 0.032103978 0.018923372
000200 28 24 2a bd 89 a7 0d 3d c1 b8 46 bc 2f e3 a5 3a
       -0.041538388 0.034583602 -0.01212901 0.0012656207
000210 9a d2 a2 3c 9d d8 15 3d fe c7 c7 3c 2a fd b8 bc
       0.019875813 0.03658353 0.024387356 -0.022581656
000220 aa 12 ec bb 97 b7 83 3b 57 f4 56 3d 31 aa d4 3c
       -0.0072043734 0.0040196883 0.052479114 0.02596006
000230 bd 2c 7d 3d 72 de 40 3d 84 0e 16 bc 1e 42 ea bb
       0.061810244 0.04708714 -0.009158734 -0.007148995
000240 2a ef 8c bc c8 0d 44 3d a0 44 52 3b e2 0e 55 3d
       -0.017203886 0.047864705 0.003208436 0.052016146
000250 f8 7e db 3c 5c 47 06 3d 8c d7 d1 3c 47 9a d8 bc
       0.026793942 0.032782897 0.025615476 -0.026440753
000260 f4 6d a5 3c 57 84 d1 bc fc 67 01 bd ac c0 3c 3d
       0.020194031 -0.0255758 -0.031593308 0.046082184
000270 dc a0 36 bd 04 6f ef 3c f4 6c f2 3c 98 3b e3 bb
       -0.044587 0.029227741 0.029592969 -0.0069345944
000280 96 da a1 ba 40 75 9f 3c b8 ee 04 bc ef ca 4e bd
       -0.0012348469 0.019465089 -0.008113556 -0.0504865
000290 bd 54 13 3d b3 47 57 3c 33 1f c0 3c 2b 46 00 3d
       0.035969485 0.013139653 0.023452377 0.031316917
0002a0 e7 c2 1f 3d cc 37 6d 3c 5a 90 1d bd 27 7c 61 3d
       0.039004233 0.014478635 -0.038467743 0.05505004
0002b0 c9 79 2d bd d4 ab 06 3c 01 90 8b bc b7 d8 36 3d
       -0.04235247 0.008219678 -0.01703644 0.04464027
0002c0 bd af 0d 3d 75 f5 c9 bc 67 c0 42 3d 74 33 13 3d
       0.034591425 -0.024653176 0.04754677 0.03593774
0002d0 62 a8 5a bd 44 67 02 3d ac 69 20 bc 18 34 10 bd
       -0.05338324 0.031836763 -0.009790819 -0.03520593
0002e0 a8 37 61 3d 8d b4 60 3d 6a d7 e2 3a 5b 8c 4c bd
       0.05498472 0.054859687 0.001730663 -0.04993854
0002f0 52 fd 3e 3a b4 d8 f2 3c 46 6d 1a 3c fc c1 5d bd
       0.00072856725 0.029644348 0.009425467 -0.054140076
000300 90 79 70 3d 17 c8 39 3c d8 b7 1b bc 7f 47 2e bd
       0.05870968 0.011339209 -0.009504281 -0.042548653
000310 67 e9 12 3d d0 9a fd 3c 01 c6 24 3d e8 c2 2d 3d
       0.03586712 0.03095761 0.040227894 0.042422205
000320 13 94 b3 3c 93 bf 19 bd d2 eb 06 bd 8b 71 6d 3d
       0.021921193 -0.037536215 -0.03293974 0.05796961
000330 d6 15 e1 3c 0f 03 35 bd e0 a4 02 bd c1 7f 51 3d
       0.027476232 -0.04419237 -0.03189552 0.051147226
000340 ac 3d 0f bc c3 5a 1e 3d 29 c8 db 3b 59 b2 26 3d
       -0.008742731 0.038660776 0.0067072106 0.04069743
000350 2c 23 d1 3b ae 16 14 3d 38 b7 4d bc 8d c4 6d 3d
       0.0063823666 0.03615444 -0.01255589 0.058048774
000360 59 0f cd bb bd 16 0d bd ce a2 0c 3d 7f 4a 21 3d
       -0.006257933 -0.034445513 0.03433495 0.039377686
000370 ad d9 4a bc 40 7b 5e 3b ee 98 87 3d 38 a9 1a 3c
       -0.0123809995 0.0033947974 0.06620966 0.009439759
000380 b7 c7 62 3d 03 f8 99 3d 09 f2 4a 3d bf 04 66 3d
       0.055366244 0.075180076 0.04954723 0.05615687
000390 f0 04 80 bc 07 ce 0a bc 57 f9 69 3c 29 ae 17 3c
       -0.015627354 -0.008471972 0.014280639 0.009257832
0003a0 ab 4a ba 3c a4 48 7b 3d 9f bb ec bc f2 47 6f 3d
       0.022740683 0.061348572 -0.028898058 0.05841822
0003b0 59 61 9b 3d 8c 2e 79 3d db 09 84 3d ae da 8c 3d
       0.07586927 0.060835406 0.06447192 0.06877647
0003c0 10 93 15 bb 44 c0 2c bc d2 6a 1f bd 57 28 3d 3d
       -0.0022823252 -0.010543887 -0.03892023 0.04618105
0003d0 4f 94 a3 3c b2 0e 01 3c 5f e3 c1 bc 8f 97 61 3c
       0.01996818 0.007877039 -0.02366799 0.013769045
0003e0 fb 11 e1 bc 4f 9a 3f bd 32 ba 4a bc 41 be a8 3c
       -0.027474394 -0.04677802 -0.012373494 0.020598533
0003f0 15 f7 26 bd b6 39 6d 3d 20 00 b8 3c 96 18 a4 bc
       -0.04076298 0.057916366 0.022460997 -0.020031255

fc1.bias f4 [50]
000000 1d 79 42 3a bf 6b 53 bd 0d 28 12 3d af 50 8a 3c
       0.000741856 -0.051616427 0.035682727 0.016884176
000010 b3 a9 11 3c 89 2b 83 bc 34 84 57 3d db d8 66 bc
       0.008890557 -0.01601197 0.052616313 -0.014089788
000020 64 5d 33 bd 33 52 3e 3d bd e3 81 bb 69 30 41 bd
       -0.043790236 0.04646511 -0.003963916 -0.04716531
000030 cf a1 0e bd 20 7f 40 3d ab b8 22 bd c9 16 03 bd
       -0.03482228 0.046996236 -0.039726894 -0.03200415
000040 d1 d3 91 3d f7 9b f3 bc 6b 4e 95 bd aa 68 29 bb
       0.07120479 -0.029737456 -0.07290348 -0.0025849738
000050 9a dc a5 bb ed 89 ae 3d 7d 33 2a 3d fc 54 24 bd
       -0.005061698 0.08522401 0.04155301 -0.04012011
000060 8f 40 d8 3d a6 eb be bc 7a f7 ef 3d ac dd 1e bd
       0.105591886 -0.023305725 0.11717124 -0.03878562
000070 7c b1 60 bb 54 eb ce 3c 6f f5 50 3d 74 a8 1d 3d
       -0.0034285476 0.025258698 0.051015314 0.038490728
000080 b2 03 ef bc 05 35 24 3c 30 3a f0 3b c7 60 c0 bc
       -0.029176567 0.0100224065 0.0073311552 -0.023483647
000090 5c b1 8b 3c fc b4 4d bd ef e1 87 3c 93 6b 4a bc
       0.017052345 -0.05022143 0.016587226 -0.012354749
0000a0 f9 68 1d 3d be d2 8e 3b c1 7f 5e 3d 5b 0e 77 3c
       0.038430188 0.0043586185 0.054321054 0.015079106
0000b0 49 54 bb 3d a9 bf ad 3c 95 fc 25 3c ee a5 7b 3d
       0.091469355 0.021209555 0.010131021 0.06143754
0000c0 be ba a3 3c 79 48 b0 3d
       0.019986507 0.08607573

fc2.weight f4 [10, 50]
000000 e2 8c 00 3e 88 3a e3 3c 8d 22 ed 3d e3 e0 f5 bd
       0.12553743 0.02773787 0.11578856 -0.12005784
000010 bb f6 b7 bc 51 a7 df 3d 4e 5c 05 bd 26 55 06 3d
       -0.022456517 0.10920585 -0.03255873 0.032796048
000020 b8 8d c8 bd be a1 b2 3b 23 cd c0 3d b3 7a c7 3d
       -0.09792656 0.00545141 0.09414127 0.097402
000030 92 bc e0 3d dc 6e e0 3d ae b4 90 3c 96 dd df 3d
       0.10973467 0.10958645 0.01766428 0.10930936
000040 c6 c5 e1 3d da d4 b8 bc 5e c8 a2 bd 2d 58 f7 bd
       0.110240504 -0.022562433 -0.07948373 -0.12077365
000050 f5 33 25 3d f3 b9 25 3e 9d 50 37 bd 22 c1 31 3c
       0.040332753 0.16184215 -0.044754613 0.010849269
000060 12 ba 23 3e 98 3f 84 bc d8 5e 4d 3e 60 36 61 3c
       0.15988949 -0.016143605 0.20055711 0.013745874
000070 ea f3 04 3e 03 73 dd 3d e6 50 25 3e 16 0d 03 3e
       0.12983671 0.10812952 0.16144142 0.1279796
000080 8e ee b7 bd b6 5a fe bb 84 5a 5b 3e 5a a6 aa 3d
       -0.089810476 -0.0077622784 0.21421248 0.0833251
000090 be b0 c6 3d 40 f7 04 be 7a 43 1d bd 63 31 61 3d
       0.0970168 -0.12984943 -0.03839443 0.05497874
0000a0 55 3d 9f 3d b2 f8 08 3e 28 7d 8b bd 07 8d d2 bc
       0.0777537 0.1337612 -0.06810981 -0.025702013
0000b0 ae 8f 35 3e 7e 2b 55 3e a3 f0 7c 3d 14 19 61 3e
       0.1773059 0.20817372 0.061752927 0.21982223
0000c0 76 cc f5 bc 97 6f 14 3e 6d 85 14 3e f6 4a ba bd
       -0.030004721 0.14495693 0.14504023 -0.09096329
0000d0 6d 6b 1a 3e 15 a9 66 bd f8 68 d6 bd c9 23 8e 3c
       0.15080042 -0.056313593 -0.1046924 0.017351048
0000e0 5f 92 1e 3e 41 99 13 bd a0 68 04 3e 0c 3a 33 3e
       0.15485524 -0.036034826 0.12930536 0.17502612
0000f0 03 41 84 3d 50 d2 3a bc fd 30 14 3d b3 29 2c 3d
       0.064577125 -0.0114026815 0.03617953 0.042031955
000100 f8 7b d3 bc b3 2e 0b be 9a 98 16 3e 82 c2 c4 3d
       -0.025815949 -0.13592033 0.1470665 0.09607412
000110 5a b4 4b bd 52 e0 d1 bd 83 a2 f9 3c 5d 3d 12 3e
       -0.049732544 -0.10247864 0.030473 0.1428122
000120 f7 80 30 3d 73 6d 0d 3e d8 36 35 3e c2 e8 d2 bd
       0.04309174 0.13811283 0.17696702 -0.10298301
000130 b5 32 71 3e 42 af 13 3d bb 73 f6 ba 2f eb b7 bd
       0.235545 0.03605581 -0.0018802801 -0.089804046
000140 1b 5a 49 3e 12 1f 0d bc 35 0d 43 bd 18 42 ff 3d
       0.19663279 -0.008613365 -0.047620017 0.12463778
000150 fb cc 43 3e 15 8b fb 3d de 55 4c 3a 78 6b bf bd
       0.19121163 0.12282387 0.00077947776 -0.0934667
000160 1b fe 14 3e be 7a 43 3d 7a 3a 11 3e de 4b b4 bd
       0.14550059 0.047724478 0.14182463 -0.08803533
000170 e4 6d ee 3a 65 38 09 be 90 01 3f 3e cc 56 66 3e
       0.0018190709 -0.13400419 0.1865294 0.22494048
000180 e3 3a f9 3d 64 57 42 3e 3b c1 bc bd e9 56 3c 3e
       0.12169435 0.1897865 -0.09216543 0.18392529
000190 68 42 cb bc 3e 28 cd bd a1 c8 e8 bd e1 15 ad 3d
       -0.024811938 -0.10017441 -0.11366392 0.08451439
0001a0 ec a9 80 bd aa 32 8e bb cf 42 81 3d 64 79 bd 3d
       -0.0628241 -0.0043395357 0.06311571 0.09251669
0001b0 d6 91 e3 bd 21 05 b8 3d 09 a0 b2 3d 58 92 e3 bd
       -0.111118004 0.08985353 0.087219305 -0.11111897
0001c0 02 4e cc bd b1 be 9f bd 2b 34 6e bd 7a a9 ed 3c
       -0.09975816 -0.078000434 -0.05815522 0.029011477
0001d0 97 34 8c 3d 4e ff 0a be 1e 6c 36 bd 5c df 64 3d
       0.06845968 -0.13573954 -0.044536702 0.055877075
0001e0 ea 10 0c be cf 71 18 be f6 a2 41 3c 49 ce 65 bd
       -0.13678327 -0.14887165 0.011818638 -0.056104932
0001f0 3a 52 be bd 49 f0 68 bd 14 22 c1 bd e7 d8 bb 3d
       -0.09293027 -0.05686978 -0.09430328 0.0917223
000200 5a 96 14 be e7 f4 69 bd 8f 63 13 bd 3a 3b 97 bd
       -0.1451048 -0.057118323 -0.03598362 -0.073843434
000210 bc ca ce 3d 29 bf be bb a0 04 09 3d d5 97 03 bd
       0.10097262 -0.005821128 0.033451676 -0.03212722
000220 a1 cf bf bd 87 d7 17 3c 0c 2c ad bd 80 35 0e be
       -0.09365774 0.009267694 -0.08455667 -0.13887596
000230 d4 98 39 3d ce c7 7a 3d 63 aa 61 bd 86 72 ea 3d
       0.045311764 0.061225705 -0.055094134 0.11447625
000240 55 bc 9d 3d 4d 87 86 3d 69 45 1c be 3f d8 95 3d
       0.07701937 0.06568775 -0.15260853 0.07316636
000250 78 7b 14 3d 7d ae 16 be 32 1b 21 bd a4 b2 a8 bd
       0.03625056 -0.14715 -0.039332576 -0.08237198
000260 7e 66 ae 3d 9e f5 18 3c 0f e5 cb 3d e5 ad 7d 3d
       0.085156426 0.009335903 0.09955799 0.061933417
000270 5c 67 2d bd 89 d2 21 bd bf 5e f5 3d 7f b2 c4 3d
       -0.0423349 -0.039507423 0.11980962 0.09604358
000280 fb f2 82 3d 5d d1 f8 3d 26 7b c7 bd d4 b2 02 3e
       0.06394001 0.12149308 -0.097402856 0.1276353
000290 3b 42 29 bd 80 ca 4c bd 1b a4 95 bd 1a a0 3a bd
       -0.041322928 -0.049997807 -0.07306691 -0.04556284
0002a0 ce 53 b8 3d 27 53 fa 3d d2 f3 d2 3d 4c 02 8a bc
       0.090003595 0.12222891 0.10300411 -0.016846798
0002b0 37 b9 5b 3d 6b 96 d0 3c 41 8a f2 bd 89 40 ea 3d
       0.05364343 0.02546235 -0.11842776 0.1143809
0002c0 4a c0 24 be d4 37 da 3d 54 7a 04 be 6f 6e ac bd
       -0.16088977 0.106551796 -0.1293729 -0.08419501
0002d0 28 0f d1 bc 00 39 d9 3d f4 a4 1b 3d 23 5c 1a bd
       -0.025519922 0.10606575 0.03799911 -0.037685525
0002e0 58 7c 32 3c 01 c2 a4 3d d7 0c 50 bd 65 92 c9 3d
       0.010893904 0.08044816 -0.050793495 0.09842376
0002f0 fa 70 1b 3d 50 2c 00 be fd e3 40 3d 55 bd ef 3d
       0.03794954 -0.12516904 0.047092427 0.11706034
000300 15 e6 8f 3c 08 c3 86 3c 45 04 b6 3d aa a4 21 be
       0.017565766 0.01645042 0.08887533 -0.1578547
000310 4a f4 95 3d c4 af a8 3d be a5 74 bd 2f 4d c8 bd
       0.07321985 0.0823665 -0.059728377 -0.097803466
000320 c7 86 19 be 39 8e 80 bd 6a 46 3e 3c 59 c1 08 be
       -0.1499282 -0.06277127 0.011613468 -0.13355006
000330 0c a2 d7 3c 95 e4 a1 bd be 55 31 3d cf 01 f3 3d
       0.026322387 -0.07904927 0.04329466 0.11865579
000340 36 12 01 3d 51 ed b0 bd 0a 14 28 bd 60 58 40 3d
       0.031511508 -0.086390145 -0.041034736 0.04695928
000350 10 5e 64 bc 00 fd e6 3d cc 86 a4 bd 8b 1c 3d bc
       -0.013938442 0.11278725 -0.08033523 -0.01154245
000360 68 df 82 bd a2 bf a7 3c d4 1e 03 bc bc db cd bd
       -0.063902676 0.02047712 -0.0080029555 -0.10051677
000370 7d f1 90 3d ec 3e 0f be 97 aa da bd 6a d3 b4 3d
       0.0707731 -0.13988847 -0.10677069 0.088293865
000380 81 98 f7 bd fc 04 0c be 65 34 25 3d a1 37 33 3c
       -0.12089635 -0.13673776 0.04033317 0.010938556
000390 53 47 b1 bd 92 09 0d 3e 0f 33 de 3d 95 2d c3 bd
       -0.08656182 0.13773182 0.108495824 -0.095301785
0003a0 d6 e7 14 bd 74 68 c2 3c e8 61 17 3d 1e ab 9e 3d
       -0.03635391 0.023731448 0.036958605 0.07747482
0003b0 cf e6 ab 3d af 3a fd 3d 22 fb f5 bd 47 63 e4 3d
       0.083936326 0.12364709 -0.120107904 0.11151748
0003c0 ed 15 7c 3d 7a 45 b7 3d a5 cc 01 be ac 13 e5 3d
       0.061544348 0.089487985 -0.12675722 0.11185393
0003d0 ff 4a d7 3d 06 e2 1c be 77 e9 db bd 8b e1 3c 3d
       0.10512351 -0.15320596 -0.10737889 0.046113532
0003e0 ca 83 05 be 7d c7 0e be 9b cd d6 bd ff 91 ed 3c
       -0.13038555 -0.13943286 -0.10488435 0.02900028
0003f0 64 e4 b5 3d 4d af 75 3c 77 19 8f 3d 18 0b 0d 3d
       0.08881453 0.014995408 0.06987279 0.034434408

fc2.bias f4 [10]
000000 d1 f5 d2 bb d1 80 0f 3f 84 b0 0c be 4b 83 89 bd
       -0.006437995 0.56055933 -0.1373921 -0.06714495
000010 c0 cf 20 3d 0d bc 28 3b 73 a7 1e be 5b 9c 29 be
       0.039260626 0.0025746853 -0.15493564 -0.16563551
000020 af 7f 33 be 03 38 22 bc
       -0.17529176 -0.00990105
